data/outputs/v1/saved_models/speech_encoder.pt (torch, 549079 bytes, 6 tensors)

weight f4 [64, 81, 1]
-0.20820604 -0.12594976 -0.2119308 -0.19132896 -0.22270612 -0.06446707 -0.17996772 -0.05355895
0.02082118 -0.04065629 0.058224335 0.017766692 0.055883974 0.07028385 -0.040451452 0.053457994
-0.0211279 0.06011384 -0.02522455 0.080477715 0.048082016 -0.00790658 -0.024511285 0.06342781
0.13853331 0.07277954 0.012029857 0.028063955 0.085727155 -0.04380576 0.050281506 -0.03526234
0.068902776 -0.022904415 0.014673209 0.037388574 0.069864854 -0.014577257 0.10210672 -0.06299574
0.031485505 -0.085609086 0.01669014 0.054521292 -0.04543727 0.07333877 0.010673452 -0.050383683
0.13590266 0.08914241 0.09147744 0.11431819 0.08391753 0.08416556 0.12543713 0.022901034
-0.057949703 -0.007863279 0.036961958 0.05166789 0.0634542 0.12099323 0.08894562 -0.029673528
0.03084968 0.010661133 0.08267324 -0.030456986 -0.077360645 -0.037946273 -0.051060755 -0.06364212
-0.12816088 0.088641115 0.0125421425 -0.08421708 -0.09032928 -0.022393495 0.05983154 -0.112711005
-0.017698476 0.035885148 -0.21520941 -0.18614578 -0.14115757 0.1362377 0.16367903 0.024451982
0.07324992 0.15909423 0.08512338 0.071604714 -0.06782098 -0.060777362 0.04154227 -0.09588109
-0.0459401 0.009886602 0.0455033 0.010981696 0.033019762 0.061045792 0.017371824 -0.01947013
0.12296885 0.12724781 0.05531792 -0.031633995 -0.06751447 -0.07225351 0.012646474 -0.035289075
-0.012326696 0.010704052 0.11340561 0.1176061 0.040663358 0.014518373 0.050381836 -0.0033875853
-0.08994471 0.03718517 0.081364624 -0.1470117 -0.12339149 -0.06377721 -0.1647849 -0.16009662
0.021938965 -0.09063833 0.032177836 -0.005947097 0.017299613 -0.1228153 -0.09588598 0.046884794
-0.0067719137 -0.084702894 -0.024351047 0.035333965 -0.1551038 0.08447878 -0.04256003 -0.009575157
0.061750185 -0.13463865 -0.025411334 0.06311827 -0.013948626 -0.03513778 -0.029000359 0.042686604
0.023472592 0.09406021 -0.004075503 0.14326976 0.15544173 0.11512468 0.17455947 0.10286903
0.16207577 0.04438767 0.03810352 -0.010598721 -0.17259869 -0.22532132 -0.19657612 -0.20586936
-0.050441075 -0.06022832 -0.08286925 -0.11009753 0.078127675 0.066551775 0.046424124 0.12519373
-0.027639918 -0.04036392 -0.016219582 0.018074736 -0.09150417 0.11046159 0.031575058 0.08930188
-0.020787105 0.024685092 0.0592703 -0.008723626 0.118090235 -0.023164071 0.053235322 -0.03239213
0.015508173 -0.0029670128 0.066176675 0.07880952 0.008464941 -0.00603 -0.024417304 0.115854435
0.0031458184 0.118866436 0.0036330498 0.12842256 0.13795389 0.12856996 0.08304254 0.06867908
-0.03649338 0.029199583 0.062494207 -0.03543565 0.032913007 0.06673621 -0.084543124 -0.08458018
-0.06776683 0.028216185 -0.013690838 0.048601925 0.00093162234 -0.032464825 0.039043143 0.09993373
-0.0503751 0.11949172 0.06795208 0.10267989 -0.112884924 -0.11690925 -0.026636653 -0.15455233
-0.13425525 -0.01590626 -0.0027489327 -0.15228572 0.003908559 -0.07665831 0.052982174 -0.07856427
-0.083497025 -0.1030212 -0.03073836 -0.21911955 -0.15929428 -0.24205099 -0.16477782 -0.0623486
-0.0044039376 -0.07999041 0.13534485 0.013270962 0.13699888 0.16384386 0.021597538 0.043405782
00000000: f733 55be f9f8 00be 6304 59be bdeb 43be
00000010: 130d 64be 5007 84bd 7549 38be a160 5bbd
00000020: 2e91 aa3c 3687 26bd a47c 6e3d 748b 913c
00000030: 98e6 643d fbf0 8f3d 6cb0 25bd c5f6 5a3d
00000040: 6b14 adbc ee39 763d b7a3 cebc 80d1 a43d
00000050: a6f1 443d 9a8a 01bc e4cb c8bc 71e6 813d
00000060: addb 0d3e 710d 953d e118 453c 61e6 e53c
00000070: b891 af3d ab6d 33bd fbf3 4d3d 3e6f 10bd
00000080: e61c 8d3d 0aa2 bbbc e667 703c c324 193d
00000090: 4e15 8f3d 73d5 6ebc 541d d13d e903 81bd
000000a0: f2f6 003d d153 afbd c3b9 883c b851 5f3d
000000b0: 6e1c 3abd a332 963d b4df 2e3c 1f5f 4ebd
000000c0: 112a 0b3e 4c90 b63d 8658 bb3d a81f ea3d
000000d0: f4dc ab3d fe5e ac3d 9772 003e f39a bb3c
000000e0: ab5c 6dbd fcd4 00bc 6c65 173d b6a1 533d
000000f0: 47f4 813d 4ccb f73d 1f29 b63d e615 f3bc
00000100: 78b8 fc3c 08ac 2e3c 9650 a93d ee80 f9bc
00000110: 426f 9ebd 8d6d 1bbd 1525 51bd cd56 82bd
00000120: 9b3c 03be 7989 b53d 8f7d 4d3c 017a acbd
00000130: 8ffe b8bd 9072 b7bc eb11 753d 07d5 e6bd
00000140: 65fc 90bc 4efc 123d db5f 5cbe 009d 3ebe
00000150: 9c8b 10be e581 0b3e 7a9b 273e 864f c83c
00000160: 0e04 963d 99e9 223e 2b55 ae3d 7ea5 923d
00000170: bae5 8abd aff1 78bd 3a28 2a3d 4e5d c4bd
00000180: b02b 3cbd 6afb 213c ab61 3a3d 92ec 333c
00000190: bb3f 073d 270b 7a3d 5b4f 8e3c d27f 9fbc
000001a0: 18d7 fb3d 404d 023e 0b95 623d a692 01bd
000001b0: 0745 8abd a6f9 93bd 2833 4f3c 478b 10bd
000001c0: e9f5 49bc 0c60 2f3c 3341 e83d 78db f03d
000001d0: 9f8e 263d 78de 6d3c 2f5d 4e3d 4002 5ebb
000001e0: ef34 b8bd 7a4f 183d 7fa2 a63d 3c8a 16be
000001f0: adb4 fcbd a09d 82bd 5fbd 28be 5ef0 23be
00000200: 58b9 b33c 97a0 b9bd e8cc 033d dedf c2bb
00000210: ebb7 8d3c 9786 fbbd de5f c4bd 450a 403d
00000220: eee6 ddbb b678 adbd d97b c7bc 59ba 103d
00000230: 88d3 1ebe 3603 ad3d 6d53 2ebd 1fe1 1cbc
00000240: c3ed 7c3d b7de 09be 6e2b d0bc 2744 813d
00000250: c788 64bc a2ec 0fbd 2992 edbc 26d8 2e3d
00000260: 9849 c03c a4a2 c03d cc8b 85bb 4fb5 123e
00000270: 1e2c 1f3e 7dc6 eb3d b8bf 323e ffac d23d
00000280: 31f7 253e d8cf 353d 7012 1c3d 42a6 2dbc
00000290: b6bd 30be a2ba 66be 404b 49be 6bcf 52be
000002a0: 4d9b 4ebd f9b1 76bd 5ab7 a9bd d07a e1bd
000002b0: 6701 a03d 4c4c 883d 3927 3e3d c932 003e
000002c0: 1c6d e2bc a354 25bd eede 84bc 7811 943c
000002d0: 8a66 bbbd b039 e23d d954 013d e7e3 b63d
000002e0: b849 aabc 6438 ca3c 6ac5 723d 8aed 0ebc
000002f0: 4bd9 f13d 94c2 bdbc 480d 5a3d 9cad 04bd
00000300: fe15 7e3c 3772 42bb a387 873d e366 a13d
00000310: 89b0 0a3c 4e97 c5bb cc06 c8bc 1745 ed3d
00000320: 132a 4e3b 3f70 f33d 7618 6e3b 3481 033e
00000330: c943 0d3e d8a7 033e 3512 aa3d 9ea7 8c3d
00000340: 157a 15bd f733 ef3c edf9 7f3d f924 11bd
00000350: cacf 063d feac 883d f224 adbd 6038 adbd
00000360: 56c9 8abd a125 e73c 894f 60bc d012 473d
00000370: 1e38 743a d6f9 04bd b4eb 1f3d 0eaa cc3d
00000380: 1f56 4ebd 13b8 f43d 762a 8b3d d649 d23d
00000390: 3630 e7bd 1e6e efbd 1c35 dabc f742 1ebe
000003a0: 357a 09be d84d 82bc 7027 34bb caf0 1bbe
000003b0: 5f13 803b 08ff 9cbd d603 593d 4ee6 a0bd
000003c0: 7d00 abbd c7fc d2bd 03cf fbbc e060 60be
000003d0: 0a1e 23be 37dc 77be 84bb 28be 3f61 7fbd
000003e0: e84e 90bb 03d2 a3bd d797 0a3e 736e 593c
000003f0: 6f49 0c3e afc6 273e 52ed b03c 43ca 313d

bias f4 [64]
-0.002181257 -0.009914151 0.004581232 -0.009723754 -0.01388013 0.011877889 -0.00021915315 -0.0058846674
0.0057697715 0.009122402 -0.014658874 0.0026047986 0.008840097 -0.006325941 -0.017285205 0.0144524835
-0.0055502 -0.007228817 -0.01738438 -0.0024416689 0.0023957859 0.009705209 -0.0069569815 -0.0034862515
-0.004513765 0.0032334973 -0.006060077 -0.022758828 -0.0034096492 -0.0045362543 0.0064061997 0.0076778727
0.0034928592 -0.021982182 0.013215468 -0.00942971 -0.001028119 -0.0076922495 0.011607082 -0.0008674561
0.0042299316 0.006714551 0.0014253623 -0.018556777 0.009026796 -0.00065556844 -0.015502261 0.026345756
-0.0033355223 0.0030204605 -0.0042834408 0.0009896696 -9.0411835e-05 -0.00085446436 0.0140185 0.0014478288
-0.00078832713 -0.0012388683 0.006542394 0.01040394 -0.0028915568 -0.014965511 0.010586194 0.014589711
00000000: 6bf3 0ebb f76e 22bc 291e 963b 6150 1fbc
00000010: 7c69 63bc 7a9b 423c 7acc 65b9 2bd4 c0bb
00000020: 5a10 bd3b 2176 153c c62b 70bc 45b5 2a3b
00000030: 0ed6 103c d749 cfbb b499 8dbc 1cca 6c3c
00000040: 74de b5bb b6df ecbb b069 8ebc 6804 20bb
00000050: 9e02 1d3b 9902 1f3c 64f7 e3bb 9879 64bb
00000060: 35e8 93bb 15e9 533b 9c93 c6bb b970 babc
00000070: 6c74 5fbb dca4 94bb 19eb d13b aa96 fb3b
00000080: 74e8 643b fa13 b4bc b185 583c 127f 1abc
00000090: f3c1 86ba 440f fcbb a12b 3e3c fe65 63ba
000000a0: 3d9b 8a3b bc05 dc3b 39d3 ba3a 6204 98bc
000000b0: 20e5 133c 74da 2bba 32fd 7dbc 0ed3 d73c
000000c0: c798 5abb ebf2 453b 1b5c 8cbb cdb7 813a
000000d0: 7c9b bdb8 22fe 5fba daad 653c 13c5 bd3a
000000e0: bda7 4eba 8661 a2ba 9461 d63b 4a75 2a3c
000000f0: 4680 3dbb e731 75bc b771 2d3c af09 6f3c

weight f4 [64, 64, 31]
-0.01607483 0.002074269 -0.005405376 -0.01622145 0.013045095 -0.0044129677 -0.0033488802 0.001861702
0.01927274 0.006843579 0.01170614 0.013493487 0.01716153 0.009636865 0.007499319 0.014720532
0.015190992 0.044723995 0.05427178 0.049905684 0.05696409 0.04335514 0.054320745 0.036059044
0.030739859 0.0210525 0.016030353 -0.0019977754 0.0011854907 -0.007273634 0.020348804 0.022781359
0.023986602 -0.001917594 0.025596445 0.03247796 0.011828862 0.0036443176 0.009077642 0.024896983
0.01852784 -0.0081856055 0.0073367516 0.016316313 -0.016478674 -0.022869153 0.0070346515 -0.017676992
-0.01648944 -0.034430172 -0.007671889 -0.025736257 0.000400471 -0.021526754 -0.020053754 -0.034940813
-0.022985024 -0.024222665 -0.04370801 -0.0052081454 -0.025525104 -0.056457236 -0.011279904 -0.00759187
0.009798783 0.021297136 0.027039457 -0.0066517075 0.004246339 0.03559029 0.03578311 0.015720658
0.003040665 0.02437986 0.03377164 0.023764675 0.02101838 0.05483816 0.06455967 0.03946231
0.08445139 0.057232853 0.08851285 0.088932596 0.043399803 0.050234985 0.039400123 0.01681409
0.012860311 0.019817239 0.00022150691 0.005873831 0.03629725 0.026129445 0.010560029 0.008599912
0.028207092 0.0010602338 0.02043638 0.009314086 0.0048665158 0.013838961 0.0057909624 0.006381296
-0.0022479058 0.012270569 0.018072842 -0.014437576 0.00330433 0.001965161 0.0071062357 0.004504574
-0.007103748 -0.0019984164 0.027583072 -0.01011417 0.0051881373 -0.018368965 -0.009485103 -0.0038681491
-0.013399021 0.023469092 0.030649051 -0.005004162 -0.02897114 0.0016479177 -0.02234608 -0.015942222
0.01844629 -0.013826878 0.0026079824 -0.008753773 -0.004688143 0.01289978 0.0046566254 0.001326365
0.00975702 0.008875201 0.010753593 0.005561195 -0.011665023 -0.0101256175 -0.004218133 -0.016125511
0.008006171 -0.015552653 -0.032345 -0.013991957 -0.012020568 -0.0033860006 -0.015377534 -0.013639798
-0.013241873 0.015666937 -0.041377068 0.004167033 0.00059024175 0.01529807 0.007853675 -0.004904532
0.0052352427 -0.01376106 0.0014639692 0.0032771807 -0.011950284 -0.00283182 0.021122461 -0.014657117
-0.0022720646 -0.008544963 -0.03504496 -0.019440781 -0.021732284 -0.03718593 -0.032181498 -0.03876747
-0.024149861 -0.032910936 -0.017151894 -0.038803983 -0.04897473 -0.013299241 -0.018277675 -0.051167425
-0.038716976 -0.017871004 0.005917248 0.016451843 0.0037810686 -0.011307826 0.025754863 0.030812984
0.007554106 0.013888034 -0.0005874769 0.013368976 0.013247753 0.023833755 0.032261778 0.0095303105
0.005277067 0.027159043 0.009156036 -0.013885923 -0.019209381 -0.036392387 -0.019361407 -0.03771912
-0.053337354 -0.059436746 -0.08109677 -0.057704598 -0.052425846 -0.051462602 -0.062332105 -0.0202769
-0.032867435 -0.030196074 -0.0040174555 -0.0016017134 -0.021392198 0.0016312234 -0.042994108 -0.008025128
-0.019116461 -0.03332244 -0.023798442 -0.042221982 -0.03155643 -0.014593165 -0.012118964 -0.025376558
0.00012114023 -0.014752435 0.0031946378 -0.009676419 0.015933657 0.017643126 -0.00820172 -0.002243106
-0.012353212 -0.038707793 -0.036848325 -0.049285937 -0.06282501 -0.04262248 -0.06796887 -0.100668535
0.0026488057 0.017176839 0.010658632 0.014522999 -0.014154142 -0.0038425648 0.013548702 -0.017904103
00000000: 5daf 83bc 76f0 073b 951f b1bb d9e2 84bc
00000010: 18bb 553c a89a 90bb e378 5bbb 5a04 f43a
00000020: dee1 9d3c 1a40 e03b 1ccb 3f3c c913 5d3c
00000030: 5696 8c3c f1e3 1d3c d9bc f53b 632e 713c
00000040: a3e3 783c 8230 373d 164c 5e3d e769 4c3d
00000050: 2d53 693d 2995 313d 6e7f 5e3d a6b2 133d
00000060: 28d2 fb3c 4b76 ac3c 1652 833c 1ced 02bb
00000070: 7862 9b3a aa57 eebb 89b2 a63c f99f ba3c
00000080: 8d7f c43c c757 fbba a3af d13c 9c07 053d
00000090: d8cd 413c 81d5 6e3b 64ba 143c c2f4 cb3c
000000a0: b2c7 973c eb1c 06bc 2269 f03b caa9 853c
000000b0: 49fe 86bc 1758 bbbc ef82 e63b 57cf 90bc
000000c0: dd14 87bc a706 0dbd 7864 fbbb d8d4 d2bc
000000d0: 4ff6 d139 e058 b0bc c547 a4bc 191e 0fbd
000000e0: 174b bcbc 9c6e c6bc 2c07 33bd 17a9 aabb
000000f0: 061a d1bc b43f 67bd 59cf 38bc 39c5 f8bb
00000100: 138b 203c 5577 ae3c da81 dd3c 91f6 d9bb
00000110: e024 8b3b 20c7 113d 4f91 123d 9cc8 803c
00000120: e545 473b 46b8 c73c 2254 0a3d 23ae c23c
00000130: bd2e ac3c fa9d 603d dc37 843d 3ba3 213d
00000140: daf4 ac3d ff6c 6a3d 3a46 b53d 4b22 b63d
00000150: fec3 313d 33c3 4d3d 0662 213d b4bd 893c
00000160: 0eb4 523c c357 a23c 4f44 6839 4479 c03b
00000170: 6dac 143d 6b0d d63c f903 2d3c a5e6 0c3c
00000180: 8f12 e73c 8bf7 8a3a 326a a73c 1c9a 183c
00000190: 4b77 9f3b cfbc 623c 1dc2 bd3b 311a d13b
000001a0: 9a51 13bb 7f0a 493c 7f0d 943c 958b 6cbc
000001b0: 758d 583b eec9 003b 6ddb e83b 1b9b 933b
000001c0: 8fc6 e8bb ddf7 02bb e5f5 e13c e7b5 25bc
000001d0: 4001 aa3b 837a 96bc 6867 1bbc c680 7dbb
000001e0: 9187 5bbc 4142 c03c b813 fb3c f4f9 a3bb
000001f0: e254 edbc f1fe d73a 200f b7bc 4399 82bc
00000200: ad1c 973c 218a 62bc afea 2a3b fc6b 0fbc
00000210: fe9e 99bb 9959 533c 9b96 983b 6dd9 ad3a
00000220: e8db 1f3c 4b69 113c d72f 303c af3a b63b
00000230: a71e 3fbc ebe5 25bc 4438 8abb a619 84bc
00000240: 512c 033c 8ed0 7ebc 317c 04bd 853e 65bc
00000250: ebf1 44bc aae7 5dbb 0df2 7bbc 7679 5fbc
00000260: 71f4 58bc f357 803c 007b 29bd 9b8b 883b
00000270: 74ba 1a3a c2a4 7a3c b3ac 003c 32b6 a0bb
00000280: 668c ab3b 1276 61bc a8e2 bf3a f8c5 563b
00000290: 20cb 43bc 0e96 39bb 0309 ad3c 6824 70bc
000002a0: ebe6 14bb 2c00 0cbc 4e8b 0fbd 4642 9fbc
000002b0: e707 b2bc 4650 18bd bfd0 03bd a3ca 1ebd
000002c0: eed5 c5bc 9ecd 06bd 2182 8cbc edf0 1ebd
000002d0: ba99 48bd 0fe5 59bc 10bb 95bc ef94 51bd
000002e0: b195 1ebd 3666 92bc 79e5 c13b 04c6 863c
000002f0: cecb 773b 7644 39bc ddfb d23c 836b fc3c
00000300: 6f88 f73b a38a 633c e800 1aba 8d09 5b3c
00000310: 1a0d 593c 023f c33c ed24 043d 0525 1c3c
00000320: 3feb ac3b a47c de3c 3303 163c c881 63bc
00000330: fe5c 9dbc 2f10 15bd d09b 9ebc 5d7f 1abd
00000340: 4578 5abd f273 73bd 1016 a6bd a85b 6cbd
00000350: 7cbc 56bd 73ca 52bd f34f 7fbd be1b a6bc
00000360: 01a0 06bd c25d f7bc dca4 83bb 95f0 d1ba
00000370: b13e afbc c6ce d53a 971a 30bd d47b 03bc
00000380: 209a 9cbc 1c7d 08bd f3f4 c2bc f5f0 2cbd
00000390: 5141 01bd 2c18 6fbc 9f8e 46bc 80e2 cfbc
000003a0: aa0c fe38 32b4 71bc 215d 513b d889 1ebc
000003b0: 4d87 823c 5188 903c 8260 06bc 1301 13bb
000003c0: 2065 4abc 108c 1ebd 45ee 16bd 0de0 49bd
000003d0: 66aa 80bd e994 2ebd 4333 8bbd 4e2b cebd
000003e0: 9697 2d3b 71b6 8c3c 8ba1 2e3c dff1 6d3c
000003f0: c6e6 67bc 8ad3 7bbb 60fb 5d3c a0ab 92bc

bias f4 [64]
-0.0014419103 0.008268869 -0.0034797615 0.006858027 -0.007898938 0.009744486 -0.0037740015 -0.0114157675
0.011786883 -0.011116658 -0.0042203106 -0.002853346 0.0024815805 -0.018837674 -0.0031366795 -0.002254077
0.00024787083 -0.020864574 -0.0035136554 0.0015453715 -0.0075148083 0.023988448 0.0005724075 0.00192453
-0.0045644576 -0.005444716 -0.0031896573 -0.0006442761 -0.007779602 0.0021691606 0.01471463 -0.0008457903
-0.003397376 0.0082139345 0.0021527642 0.0006924272 -0.001494872 0.007946146 -0.001510426 0.0037346547
0.0022894812 0.0028935336 0.007896349 0.008167908 0.0034746584 0.004273863 0.0022845163 -0.009376214
0.0050808294 0.002443541 -0.003598734 0.0024049564 0.00059492583 0.011298335 8.141304e-05 -0.027927885
0.00273492 0.0033607495 0.0039307447 -0.005125537 -0.0021372007 0.000101144054 -0.0050610625 -0.00943605
00000000: 7bfe bcba 267a 073c b60c 64bb 4db9 e03b
00000010: 8c6a 01bc 56a7 1f3c 3d55 77bb 3309 3bbc
00000020: c51d 413c a522 36bc 884a 8abb 34ff 3abb
00000030: 03a2 223b 7751 9abc c090 4dbb 23b9 13bb
00000040: a9f4 8139 2fec aabc 5b45 66bb 108e ca3a
00000050: c83e f6bb 6c83 c43c 9e0d 163a 8340 fc3a
00000060: 7291 95bb 9769 b2bb 9209 51bb a3e4 28ba
00000070: 08ec febb 7a28 0e3b a215 713c 07b8 5dba
00000080: 83a6 5ebb bd93 063c 6415 0d3b 0184 353a
00000090: 95ef c3ba 8d30 023c 7df9 c5ba 1cc1 743b
000000a0: 1f0b 163b 70a1 3d3b b05f 013c b0d2 053c
000000b0: 18b7 633b c30b 8c3b d3b7 153b b19e 19bc
000000c0: 167d a63b d123 203b bdd8 6bbb 799c 1d3b
000000d0: ccf4 1b3a a71c 393c 4bbc aa38 05c9 e4bc
000000e0: 583c 333b 0540 5c3b 7acd 803b 1ff4 a7bb
000000f0: 4710 0cbb 4d1d d438 45d7 a5bb aa99 1abc

weight f4 [64, 64]
-0.101635695 0.118772104 -0.033306774 -0.054528154 0.01824968 0.17999141 0.04546719 -0.0652208
-0.03124073 0.098597355 -0.14541264 0.028539693 -0.05200762 -0.027222093 -0.101547495 0.12501103
-0.24210052 -0.12784508 0.10487668 0.0846407 0.01528705 0.034518532 0.017067153 0.08740622
0.09769571 0.03541694 0.12705329 0.15496136 0.08895197 -0.04833175 0.106757045 0.15383206
0.12460231 0.12026212 -0.046331 0.12841815 0.04720859 0.014619443 -0.018929195 0.013407114
-0.11041748 0.05991083 -0.053143263 -0.009673519 0.16020177 0.10130388 0.066110104 -0.02329425
0.105072364 0.12039835 0.0042415974 0.10860423 0.0086739035 0.0055778343 0.1372195 0.015204868
0.1717107 0.021777386 -0.09566378 -0.068751164 -0.19735321 0.1759958 0.19952206 -0.08297855
0.050505813 0.02392349 0.0471526 -0.09381983 0.09254487 -0.08386838 -0.18065563 -0.14810048
-0.056635424 -0.021304851 -0.07420404 -0.05808963 0.11236014 0.03558636 0.08271802 -0.07806689
0.12879002 0.11155509 -0.099570416 0.07037285 0.12439392 -0.146289 -0.15591362 -0.115232885
0.040092662 0.111876845 -0.16439565 -0.23065174 0.092462234 -0.08526484 -0.012005284 -0.0007909237
-0.12169301 -0.06880182 -0.14256966 -0.19829722 -0.0940402 -0.064042285 -0.036964927 -0.028839584
0.029557329 -0.11800702 0.030479053 -0.10438009 -0.097641885 -0.12336918 0.18040228 0.14534813
-0.05894472 0.09919968 0.00458958 -0.15498906 -0.1406691 -0.072365746 0.059951887 0.0882442
0.053422354 0.04407615 -0.09869896 0.099483244 0.07994917 0.018407056 -0.11762813 0.1555184
0.055957578 0.14882 -0.055429198 0.036115956 -0.020214466 0.095401466 0.02808139 0.1075911
-0.042137917 0.071208574 -0.080826715 0.062427867 -0.018577952 0.06910031 -0.042491693 0.06009547
0.08074694 -0.047655527 0.15410607 -0.0792643 -0.080766164 0.008993361 0.049194407 -0.021271585
0.11568586 -0.03957061 0.18653533 0.25865558 -0.10783891 -0.07795034 0.10229081 -0.17189336
0.05797793 -0.0688603 0.049728032 0.20877096 0.03502974 0.13503762 -0.09801704 0.099441215
0.11727195 0.06346137 0.0044853725 0.15562353 0.15658346 0.027074166 0.0137836095 0.022791054
-0.105054244 0.01378497 0.049908444 0.17382996 0.21764106 0.03039761 0.061198 0.09359316
0.08968236 -0.20626801 0.09878215 -0.14952081 -0.1076508 0.026703926 0.092918485 -0.21581227
0.03910975 -0.029643225 0.09240782 0.15056454 -0.05817876 0.0037197233 0.1441969 0.06179571
0.14493503 -0.066799164 0.014577529 0.025580548 0.098754406 -0.029407503 0.16007566 -0.06667854
-0.00070213637 0.08873203 -0.02903482 0.030416513 -0.05385315 -0.13974692 0.021521762 -0.03751255
0.023705823 -0.05026269 0.07173067 -0.07419756 0.071483396 -0.054321393 0.104434885 0.1707581
-0.08935024 -0.061723262 0.011163294 -0.040499862 -0.061788216 -0.032293517 0.0920826 -0.07344541
-0.009391018 -0.14743446 0.1364879 -0.017904617 -0.053207383 0.0873002 -0.029325182 0.040652137
0.11877898 -0.0027258394 0.15489738 -0.121712595 -0.08118189 0.11248742 0.13865189 -0.08979262
0.12855116 -0.10133131 0.033618245 -0.081256084 -0.09220017 0.10248129 0.1852764 0.10447893
00000000: 6026 d0bd ca3e f33d af6c 08bd ea58 5fbd
00000010: 5a80 953c ab4f 383e ce3b 3a3d 7c92 85bd
00000020: 8fec ffbc 69ed c93d 0de7 14be 13cc e93c
00000030: f105 55bd de00 dfbc 22f8 cfbd e402 003e
00000040: 33e9 77be d2e9 02be 96c9 d63d 1a58 ad3d
00000050: 8976 7a3c 4e63 0d3d 6ad0 8b3c 0802 b33d
00000060: b014 c83d 5a11 113d 421a 023e 31ae 1e3e
00000070: 732c b63d 83f7 45bd 70a3 da3d 2786 1d3e
00000080: 7f2f ff3d fd4b f63d 93c5 3dbd 0c80 033e
00000090: cb5d 413d 6386 6f3c 6611 9bbc 83a9 5b3c
000000a0: 8f22 e2bd 0f65 753d c0ac 59bd ae7d 1ebc
000000b0: ef0b 243e 6978 cf3d bc64 873d 95d3 bebc
000000c0: 2e30 d73d 6993 f63d 19fd 8a3b e56b de3d
000000d0: fd1c 0e3c 44c6 b63b 4583 0c3e d71d 793c
000000e0: eed4 2f3e 7d66 b23c 5feb c3bd 69cd 8cbd
000000f0: f616 4abe 3e38 343e 834f 4c3e a8f0 a9bd
00000100: 2fdf 4e3d 32fb c33c 1623 413d 9c24 c0bd
00000110: 2a88 bd3d 2fc3 abbd cafd 38be a7a7 17be
00000120: 8cfa 67bd 8387 aebc 4af8 97bd 64ef 6dbd
00000130: 131d e63d 01c3 113d 1168 a93d 89e1 9fbd
00000140: 88e1 033e ff76 e43d 93eb cbbd a41f 903d
00000150: 3dc2 fe3d c9cc 15be d2a7 1fbe 38ff ebbd
00000160: 3438 243d b01f e53d 5557 28be f82f 6cbe
00000170: d75c bd3d 559f aebd d0b1 44bc fe55 4fba
00000180: 2f3a f9bd f8e7 8cbd c8fd 11be 6d0e 4bbe
00000190: 2698 c0bd 9a28 83bd 8968 17bd fe40 ecbc
000001a0: 3622 f23c aaad f1bd 35af f93c 3bc5 d5bd
000001b0: 78f8 c7bd fba8 fcbd 60bb 383e 24d6 143e
000001c0: 0570 71bd 3429 cb3d 3064 963b 74b5 1ebe
000001d0: 900b 10be 7e34 94bd 1c90 753d 60b9 b43d
000001e0: 66d1 5a3d 3189 343d ae22 cabd dfbd cb3d
000001f0: 64bc a33d 65ca 963c 04e7 f0bd 3740 1f3e
00000200: c633 653d 4564 183e ba09 63bd 53ee 133d
00000210: cf98 a5bc d861 c33d f10a e63c b958 dc3d
00000220: cf98 2cbd cdd5 913d 7a88 a5bd 5db4 7f3d
00000230: ca30 98bc 7784 8d3d c50b 2ebd ab26 763d
00000240: a75e a53d 7132 43bd fbcd 1d3e 5255 a2bd
00000250: bb68 a5bd e458 133c 1380 493d bf41 aebc
00000260: b5ec ec3d cb14 22bd 1e03 3f3e 816e 843e
00000270: a5da dcbd 6ea4 9fbd d87d d13d d004 30be
00000280: 447a 6d3d a106 8dbd 9faf 4b3d 0ec8 553e
00000290: 587b 0f3d 4d47 0a3e 28bd c8bd d6a7 cb3d
000002a0: 472c f03d 09f8 813d 08fa 923b c65b 1f3e
000002b0: 6a57 203e a4ca dd3c a6d4 613c 4eb4 ba3c
000002c0: ae26 d7bd 5bda 613c cc6c 4c3d 7b00 323e
000002d0: 4cdd 5e3e 6904 f93c c1aa 7a3d c5ad bf3d
000002e0: 63ab b73d ec37 53be 4c4e ca3d fc1b 19be
000002f0: 0678 dcbd 31c2 da3c 0c4c be3d e4fd 5cbe
00000300: 8c31 203d 59d6 f2bc 5040 bd3d 972d 1a3e
00000310: da4c 6ebd 9ac6 733b 5aa8 133e 801d 7d3d
00000320: d969 143e 00ce 88bd 97d6 6e3c 4c8e d13c
00000330: c03f ca3d 01e8 f0bc e0ea 233e c28e 88bd
00000340: 930f 38ba 23b9 b53d 6eda edbc 0d2c f93c
00000350: 1f95 5cbd d119 0fbe 684e b03c c2a6 19bd
00000360: b732 c23c 40e0 4dbd 88e7 923d e4f4 97bd
00000370: e365 923d 1c80 5ebd f5e1 d53d 36db 2e3e
00000380: 42fd b6bd 88d1 7cbd 40e6 363c 2fe3 25bd
00000390: a415 7dbd 3546 04bd cd95 bc3d 8c6a 96bd
000003a0: c9dc 19bc 0ff9 16be 7cc3 0b3e b4ac 92bc
000003b0: fcef 59bd 72ca b23d 5d3b f0bc db82 263d
000003c0: 6542 f33d ffa3 32bb 6b9d 1e3e 7444 f9bd
000003d0: b142 a6bd ce5f e63d c3fa 0d3e 31e5 b7bd
000003e0: eaa2 033e ca86 cfbd 49b3 093d 9769 a6bd
000003f0: 71d3 bcbd b6e1 d13d 19b9 3d3e 0df9 d53d

bias f4 [64]
0.11981812 -0.03996398 -0.098808795 0.04059183 0.058242712 -0.011833126 0.120777436 -0.007234814
0.067791745 0.01732814 0.09188723 -0.13254757 0.09197907 -0.06721214 0.06845504 -0.044910535
-0.01571276 0.13134715 0.042735476 0.05336952 0.13498686 -0.124712154 -0.089487575 -0.13720828
0.037903745 -0.076927334 -0.12718225 -0.12558343 0.11672632 -0.08115235 -0.09012706 -0.14802504
-0.07695971 -0.1494324 -0.010137546 -0.12398263 0.046354096 -0.07259014 -0.1326617 0.120202534
0.056293245 -0.073232755 0.03434768 0.042814866 -0.10416918 -0.08181948 0.0075276415 0.06018463
-0.12854506 0.098795205 0.058673073 -0.10477913 0.0043266034 -0.15055056 0.088452265 -0.048636246
0.045111626 -0.115206175 -0.08654083 0.14474402 0.07454812 0.11230728 0.11330283 0.08559027
00000000: 3463 f53d 45b1 23bd 445c cabd 9e43 263d
00000010: e98f 6e3d badf 41bc 295a f73d 0512 edbb
00000020: 66d6 8a3d bef3 8d3c 5f2f bc3d 8dba 07be
00000030: 865f bc3d 85a6 89bd 2832 8c3d 1cf4 37bd
00000040: 0cb8 80bc de7f 063e 650b 2f3d ff99 5a3d
00000050: ff39 0a3e 1669 ffbd 4345 b7bd 5480 0cbe
00000060: f540 1b3d 148c 9dbd 103c 02be f198 00be
00000070: 350e ef3d 3433 a6bd 8994 b8bd e093 17be
00000080: 0d9d 9dbd cf04 19be f317 26bc 9bea fdbd
00000090: cbdd 3d3d 24aa 94bd 78d8 07be bf2c f63d
000000a0: bf93 663d 0efb 95bd 27b0 0c3d a45e 2f3d
000000b0: a756 d5bd f990 a7bd 6faa f63b 2984 763d
000000c0: 51a1 03be 2455 ca3d 2d53 703d 7196 d6bd
000000d0: 2ec6 8d3b ed29 1abe 7626 b53d cd36 47bd
000000e0: f8c6 383d 37f1 ebbd 523c b1bd c737 143e
000000f0: afac 983d 5c01 e63d 500b e83d f449 af3d
